…
n    name = \"output\",\n    units = 2,\n    activation = \"sigmoid\"\n  )\n\n# Compile Model\nmodel_keras %>% \n  compile(optimizer = optimizer_adam(learning_rate = 0.01),\n          metrics = \"accuracy\",\n          loss = \"binary_crossentropy\")\n\n# model summary\nsummary(model_keras)\n\nModel: \"sequential\"\n________________________________________________________________________________\n Layer (type)                       Output Shape                    Param #     \n================================================================================\n input (Embedding)                  (None, 33, 33)                  33792       \n embedding_dropout (Dropout)        (None, 33, 33)                  0           \n lstm1 (LSTM)                       (None, 33, 256)                 296960      \n lstm2 (LSTM)                       (None, 32)                      36992       \n output (Dense)                     (None, 2)                       66          \n================================================================================\nTotal params: 367810 (1.40 MB)\nTrainable params: 367810 (1.40 MB)\nNon-trainable params: 0 (0.00 Byte)\n________________________________________________________________________________\n\n\n\n\n\n\nepochs <- 10 #Durchläufe\nbatch_size <- 1024\n\n# fit the model\ntic()\nhistory <- model_keras %>%\n  fit(\
…
